…
op_step4eval': 'N/A', 'latent_op_alpha': 'N/A', 'latent_op_beta': 'N/A', 'latent_norm_reg_weight': 'N/A', 'ema': False, 'ema_decay': 'N/A', 'ema_start': 'N/A'}}}
[INFO] 2021-02-11 16:18:59 > Load train datasets...
[INFO] 2021-02-11 16:29:26 > Train dataset size : 1281167
[INFO] 2021-02-11 16:29:26 > Load valid datasets...
[INFO] 2021-02-11 16:29:26 > Eval dataset size : 50000
[INFO] 2021-02-11 16:29:26 > Build model...
[INFO] 2021-02-11 16:29:26 > Modules are located on models.resnet.
[INFO] 2021-02-11 16:29:34 > Number of parameters: 42017412
[INFO] 2021-02-11 16:29:34 > Generator(
  (linear0): Linear(in_features=128, out_features=16384, bias=True)
  (blocks): ModuleList(
    (0): ModuleList(
      (0): GenBlock(
        (bn1): ConditionalBatchNorm2d(
          (bn): BatchNorm2d(1024, eps=0.0001, momentum=0.1, affine=False, track_running_stats=True)
          (embed0): Embedding(1000, 1024)
          (embed1): Embedding(1000, 1024)
        )
        (bn2): ConditionalBatchNorm2d(
          (bn): BatchNorm2d(1024, eps=0.0001, momentum=0.1, affine=False, track_running_stats=True)
          (embed0): Embedding(1000, 1024)
          (embed1): Embedding(1000, 1024)
        )
        (activation): ReLU(inplace=True)
        (conv2d0): Conv2d(1024, 1024, kernel_size=(1, 1), stride=(1, 1))
        (conv2d1): Conv2d(1024, 1024, kernel_size=(3, 3), stride=(1, 1), padding=(1, 1))
        (conv2d2): Conv2d(1024, 1024, kernel_size=(3, 3), stride=(1, 1), padding=(1, 1))
      )
    )
    (1): ModuleList(
      (0): GenBlock(
        (bn1): ConditionalBatchNorm2d(
          (bn): BatchNorm2d(1024, eps=0.0001, momentum=0.1, affine=False, track_running_stats=True)
          (embed0): Embedding(1000, 1024)
          (embed1): Embedding(1000, 1024)
        )
        (bn2): ConditionalBatchNorm2d(
          (bn): BatchNorm2d(512, eps=0.0001, momentum=0.1, affine=False, track_running_stats=True)
          (embed0): Embedding(1000, 512)
          (embed1): Embedding(1000, 512)
        )
        (activation): ReLU(inplace=True)
        (conv2d0): Conv2d(1024, 512, kernel_size=(1, 1), stride=(1, 1))
        (conv2d1): Conv2d(1024, 512, kernel_size=(3, 3), stride=(1, 1), padding=(1, 1))
        (conv2d2): Conv2d(512, 512, kernel_size=(3, 3), stride=(1, 1), padding=(1, 1))
      )
    )
    (2): ModuleList(
      (0): GenBlock(
        (bn1): ConditionalBatchNorm2d(
          (bn): BatchNorm2d(512, eps=0.0001, momentum=0.1, affine=False, track_running_stats=True)
          (embed0): Embedding(1000, 512)
          (embed1): Embedding(1000, 512)
        )
        (bn2): ConditionalBatchNorm2d(
          (bn): BatchNorm2d(256, eps=0.0001, momentum=0.1, affine=False, track_running_stats=True)
          (embed0): Embedding(1000, 256)
          (embed1): Embedding(1000, 256)
        )
        (activation): ReLU(inplace=True)
        (conv2d0): Conv2d(512, 256, kernel_size=(1, 1), stride=(1, 1))
        (conv2d1): Conv2d(512, 256, kernel_size=(3, 3), stride=(1, 1), padding=(1, 1))
        (conv2d2): Conv2d(256, 256, kernel_size=(3, 3), stride=(1, 1), padding=(1, 1))
      )
    )
    (3): ModuleList(
      (0): GenBlock(
        (bn1): ConditionalBatchNorm2d(
          (bn): BatchNorm2d(256, eps=0.0001, momentum=0.1, affine=False, track_running_stats=True)
          (embed0): Embedding(1000, 256)
          (embed1): Embedding(1000, 256)
        )
        (bn2): ConditionalBatchNorm2d(
          (bn): BatchNorm2d(128, eps=0.0001, momentum=0.1, affine=False, track_running_stats=True)
          (embed0): Embedding(1000, 128)
          (embed1): Embedding(1000, 128)
        )
        (activation): ReLU(inplace=True)
        (conv2d0): Conv2d(256, 128, kernel_size=(1, 1), stride=(1, 1))
        (conv2d1): Conv2d(256, 128, kernel_size=(3, 3), stride=(1, 1), padding=(1, 1))
        (conv2d2): Conv2d(128, 128, kernel_size=(3, 3), stride=(1, 1), padding=(1, 1))
      )
    )
    (4): ModuleList(
      (0): Self_Attn(
        (conv1x1_theta): Conv2d(128, 16, kernel_size=(1, 1), stride=(1, 1), bias=False)
        (conv1x1_phi): Conv2d(128, 16, kernel_size=(1, 1), stride=(1, 1), bias=False)
        (conv1x1_g): Conv2d(128, 64, kernel_size=(1, 1), stride=(1, 1), bias=False)
        (conv1x1_attn): Conv2d(64, 128, kernel_size=(1, 1), stride=(1, 1), bias=False)
        (maxpool): MaxPool2d(kernel_size=2, stride=2, padding=0, dilation=1, ceil_mode=False)
        (softmax): Softmax(dim=-1)
      )
    )
    (5): ModuleList(
      (0): GenBlock(
        (bn1): ConditionalBatchNorm2d(
          (bn): BatchNorm2d(128, eps=0.0001, momentum=0.1, affine=False, track_running_stats=True)
          (embed0): Embedding(1000, 128)
          (embed1): Embedding(1000, 128)
        )
        (bn2): ConditionalBatchNorm2d(
          (bn): BatchNorm2d(64, eps=0.0001, momentum=0.1, affine=False, track_running_stats=True)
          (embed0): Embedding(1000, 64)
          (embed1): Embedding(1000, 64)
        )
        (activation): ReLU(inplace=True)
        (conv2d0): Conv2d(128, 64, kernel_size=(1, 1), stride=(1, 1))
        (conv2d1): Conv2d(128, 64, kernel_size=(3, 3), stride=(1, 1), padding=(1, 1))
        (conv2d2): Conv2d(64, 64, kernel_size=(3, 3), stride=(1, 1), padding=(1, 1))
      )
    )
  )
  (bn4): BatchNorm2d(64, eps=0.0001, momentum=0.1, affine=True, track_running_stats=True)
  (activation): ReLU(inplace=True)
  (conv2d5): Conv2d(64, 3, kernel_size=(3, 3), stride=(1, 1), padding=(1, 1))
  (tanh): Tanh()
)
[INFO] 2021-02-11 16:29:34 > Number of parameters: 39448258
[INFO] 2021-02-11 16:29:34 > Discriminator(
  (blocks): ModuleList(
    (0): ModuleList(
      (0): DiscOptBlock(
        (conv2d0): Conv2d(3, 64, kernel_size=(1, 1), stride=(1, 1))
        (conv2d1): Conv2d(3, 64, kernel_size=(3, 3), stride=(1, 1), padding=(1, 1))
        (conv2d2): Conv2d(64, 64, kernel_size=(3, 3), stride=(1, 1), padding=(1, 1))
        (activation): ReLU(inplace=True)
        (average_pooling): AvgPool2d(kernel_size=2, stride=2, padding=0)
      )
    )
    (1): ModuleList(
      (0): Self_Attn(
        (conv1x1_theta): Conv2d(64, 8, kernel_size=(1, 1), stride=(1, 1), bias=False)
        (conv1x1_phi): Conv2d(64, 8, kernel_size=(1, 1), stride=(1, 1), bias=False)
        (conv1x1_g): Conv2d(64, 32, kernel_size=(1, 1), stride=(1, 1), bias=False)
        (conv1x1_attn): Conv2d(32, 64, kernel_size=(1, 1), stride=(1, 1), bias=False)
        (maxpool): MaxPool2d(kernel_size=2, stride=2, padding=0, dilation=1, ceil_mode=False)
        (softmax): Softmax(dim=-1)
      )
    )
    (2): ModuleList(
      (0): DiscBlock(
        (activation): ReLU(inplace=True)
        (conv2d0): Conv2d(64, 128, kernel_size=(1, 1), stride=(1, 1))
        (conv2d1): Conv2d(64, 128, kernel_size=(3, 3), stride=(1, 1), padding=(1, 1))
        (conv2d2): Conv2d(128, 128, kernel_size=(3, 3), stride=(1, 1), padding=(1, 1))
        (average_pooling): AvgPool2d(kernel_size=2, stride=2, padding=0)
      )
    )
    (3): ModuleList(
      (0): DiscBlock(
        (activation): ReLU(inplace=True)
        (conv2d0): Conv2d(128, 256, kernel_size=(1, 1), stride=(1, 1))
        (conv2d1): Conv2d(128, 256, kernel_size=(3, 3), stride=(1, 1), padding=(1, 1))
        (conv2d2): Conv2d(256, 256, kernel_size=(3, 3), stride=(1, 1), padding=(1, 1))
        (average_pooling): AvgPool2d(kernel_size=2, stride=2, padding=0)
      )
    )
    (4): ModuleList(
      (0): DiscBlock(
        (activation): ReLU(inplace=True)
        (conv2d0): Conv2d(256, 512, kernel_size=(1, 1), stride=(1, 1))
        (conv2d1): Conv2d(256, 512, kernel_size=(3, 3), stride=(1, 1), padding=(1, 1))
        (conv2d2): Conv2d(512, 512, kernel_size=(3, 3), stride=(1, 1), padding=(1, 1))
        (average_pooling): AvgPool2d(kernel_size=2, stride=2, padding=0)
      )
    )
    (5): ModuleList(
      (0): DiscBlock(
        (activation): ReLU(inplace=True)
        (conv2d0): Conv2d(512, 1024, kernel_size=(1, 1), stride=(1, 1))
        (conv2d1): Conv2d(512, 1024, kernel_size=(3, 3), stride=(1, 1), padding=(1, 1))
        (conv2d2): Conv2d(1024, 1024, kernel_size=(3, 3), stride=(1, 1), padding=(1, 1))
        (average_pooling): AvgPool2d(kernel_size=2, stride=2, padding=0)
      )
    )
    (6): ModuleList(
      (0): DiscBlock(
        (activation): ReLU(inplace=True)
        (conv2d1): Conv2d(1024, 1024, kernel_size=(3, 3), stride=(1, 1), padding=(1, 1))
        (conv2d2): Conv2d(1024, 1024, kernel_size=(3, 3), stride=(1, 1), padding=(1, 1))
        (average_pooling): AvgPool2d(kernel_size=2, stride=2, padding=0)
      )
    )
  )
  (activation): ReLU(inplace=True)
  (linear1): Linear(in_features=1024, out_features=1, bias=True)
  (embedding): Embedding(1000, 1024)
)
[INFO] 2021-02-11 16:29:37 > Start training....
[INFO] 2021-02-11 16:30:57 > Step:     100 Progress: 0.0% Elapsed: 0:01:20 temperature: no ada_p: No Discriminator_loss: 1.92722 Generator_loss: -0.353407 
[INFO] 2021-02-11 16:31:55 > Step:     200 Progress: 0.0% Elapsed: 0:02:17 temperature: no ada_p: No Discriminator_loss: 1.95519 Generator_loss: -0.289279 
[INFO] 2021-02-11 16:32:48 > Step:     300 Progress: 0.0% Elapsed: 0:03:10 temperature: no ada_p: No Discriminator_loss: 1.97746 Generator_loss: 0.0776407 
…
