…
op_step4eval': 'N/A', 'latent_op_alpha': 'N/A', 'latent_op_beta': 'N/A', 'latent_norm_reg_weight': 'N/A', 'ema': False, 'ema_decay': 'N/A', 'ema_start': 'N/A'}}}
[INFO] 2021-02-05 01:08:08 > Load train datasets...
[INFO] 2021-02-05 01:18:33 > Train dataset size : 1281167
[INFO] 2021-02-05 01:18:33 > Load valid datasets...
[INFO] 2021-02-05 01:18:58 > Eval dataset size : 50000
[INFO] 2021-02-05 01:18:58 > Build model...
[INFO] 2021-02-05 01:18:58 > Modules are located on models.resnet.
[INFO] 2021-02-05 01:19:10 > Number of parameters: 41996931
[INFO] 2021-02-05 01:19:10 > Generator(
  (linear0): Linear(in_features=128, out_features=16384, bias=True)
  (blocks): ModuleList(
    (0): ModuleList(
      (0): GenBlock(
        (bn1): ConditionalBatchNorm2d(
          (bn): BatchNorm2d(1024, eps=0.0001, momentum=0.1, affine=False, track_running_stats=True)
          (embed0): Embedding(1000, 1024)
          (embed1): Embedding(1000, 1024)
        )
        (bn2): ConditionalBatchNorm2d(
          (bn): BatchNorm2d(1024, eps=0.0001, momentum=0.1, affine=False, track_running_stats=True)
          (embed0): Embedding(1000, 1024)
          (embed1): Embedding(1000, 1024)
        )
        (activation): ReLU(inplace=True)
        (conv2d0): Conv2d(1024, 1024, kernel_size=(1, 1), stride=(1, 1))
        (conv2d1): Conv2d(1024, 1024, kernel_size=(3, 3), stride=(1, 1), padding=(1, 1))
        (conv2d2): Conv2d(1024, 1024, kernel_size=(3, 3), stride=(1, 1), padding=(1, 1))
      )
    )
    (1): ModuleList(
      (0): GenBlock(
        (bn1): ConditionalBatchNorm2d(
          (bn): BatchNorm2d(1024, eps=0.0001, momentum=0.1, affine=False, track_running_stats=True)
          (embed0): Embedding(1000, 1024)
          (embed1): Embedding(1000, 1024)
        )
        (bn2): ConditionalBatchNorm2d(
          (bn): BatchNorm2d(512, eps=0.0001, momentum=0.1, affine=False, track_running_stats=True)
          (embed0): Embedding(1000, 512)
          (embed1): Embedding(1000, 512)
        )
        (activation): ReLU(inplace=True)
        (conv2d0): Conv2d(1024, 512, kernel_size=(1, 1), stride=(1, 1))
        (conv2d1): Conv2d(1024, 512, kernel_size=(3, 3), stride=(1, 1), padding=(1, 1))
        (conv2d2): Conv2d(512, 512, kernel_size=(3, 3), stride=(1, 1), padding=(1, 1))
      )
    )
    (2): ModuleList(
      (0): GenBlock(
        (bn1): ConditionalBatchNorm2d(
          (bn): BatchNorm2d(512, eps=0.0001, momentum=0.1, affine=False, track_running_stats=True)
          (embed0): Embedding(1000, 512)
          (embed1): Embedding(1000, 512)
        )
        (bn2): ConditionalBatchNorm2d(
          (bn): BatchNorm2d(256, eps=0.0001, momentum=0.1, affine=False, track_running_stats=True)
          (embed0): Embedding(1000, 256)
          (embed1): Embedding(1000, 256)
        )
        (activation): ReLU(inplace=True)
        (conv2d0): Conv2d(512, 256, kernel_size=(1, 1), stride=(1, 1))
        (conv2d1): Conv2d(512, 256, kernel_size=(3, 3), stride=(1, 1), padding=(1, 1))
        (conv2d2): Conv2d(256, 256, kernel_size=(3, 3), stride=(1, 1), padding=(1, 1))
      )
    )
    (3): ModuleList(
      (0): GenBlock(
        (bn1): ConditionalBatchNorm2d(
          (bn): BatchNorm2d(256, eps=0.0001, momentum=0.1, affine=False, track_running_stats=True)
          (embed0): Embedding(1000, 256)
          (embed1): Embedding(1000, 256)
        )
        (bn2): ConditionalBatchNorm2d(
          (bn): BatchNorm2d(128, eps=0.0001, momentum=0.1, affine=False, track_running_stats=True)
          (embed0): Embedding(1000, 128)
          (embed1): Embedding(1000, 128)
        )
        (activation): ReLU(inplace=True)
        (conv2d0): Conv2d(256, 128, kernel_size=(1, 1), stride=(1, 1))
        (conv2d1): Conv2d(256, 128, kernel_size=(3, 3), stride=(1, 1), padding=(1, 1))
        (conv2d2): Conv2d(128, 128, kernel_size=(3, 3), stride=(1, 1), padding=(1, 1))
      )
    )
    (4): ModuleList(
      (0): GenBlock(
        (bn1): ConditionalBatchNorm2d(
          (bn): BatchNorm2d(128, eps=0.0001, momentum=0.1, affine=False, track_running_stats=True)
          (embed0): Embedding(1000, 128)
          (embed1): Embedding(1000, 128)
        )
        (bn2): ConditionalBatchNorm2d(
          (bn): BatchNorm2d(64, eps=0.0001, momentum=0.1, affine=False, track_running_stats=True)
          (embed0): Embedding(1000, 64)
          (embed1): Embedding(1000, 64)
        )
        (activation): ReLU(inplace=True)
        (conv2d0): Conv2d(128, 64, kernel_size=(1, 1), stride=(1, 1))
        (conv2d1): Conv2d(128, 64, kernel_size=(3, 3), stride=(1, 1), padding=(1, 1))
        (conv2d2): Conv2d(64, 64, kernel_size=(3, 3), stride=(1, 1), padding=(1, 1))
      )
    )
  )
  (bn4): BatchNorm2d(64, eps=0.0001, momentum=0.1, affine=True, track_running_stats=True)
  (activation): ReLU(inplace=True)
  (conv2d5): Conv2d(64, 3, kernel_size=(3, 3), stride=(1, 1), padding=(1, 1))
  (tanh): Tanh()
)
[INFO] 2021-02-05 01:19:10 > Number of parameters: 39443137
[INFO] 2021-02-05 01:19:10 > Discriminator(
  (blocks): ModuleList(
    (0): ModuleList(
      (0): DiscOptBlock(
        (conv2d0): Conv2d(3, 64, kernel_size=(1, 1), stride=(1, 1))
        (conv2d1): Conv2d(3, 64, kernel_size=(3, 3), stride=(1, 1), padding=(1, 1))
        (conv2d2): Conv2d(64, 64, kernel_size=(3, 3), stride=(1, 1), padding=(1, 1))
        (activation): ReLU(inplace=True)
        (average_pooling): AvgPool2d(kernel_size=2, stride=2, padding=0)
      )
    )
    (1): ModuleList(
      (0): DiscBlock(
        (activation): ReLU(inplace=True)
        (conv2d0): Conv2d(64, 128, kernel_size=(1, 1), stride=(1, 1))
        (conv2d1): Conv2d(64, 128, kernel_size=(3, 3), stride=(1, 1), padding=(1, 1))
        (conv2d2): Conv2d(128, 128, kernel_size=(3, 3), stride=(1, 1), padding=(1, 1))
        (average_pooling): AvgPool2d(kernel_size=2, stride=2, padding=0)
      )
    )
    (2): ModuleList(
      (0): DiscBlock(
        (activation): ReLU(inplace=True)
        (conv2d0): Conv2d(128, 256, kernel_size=(1, 1), stride=(1, 1))
        (conv2d1): Conv2d(128, 256, kernel_size=(3, 3), stride=(1, 1), padding=(1, 1))
        (conv2d2): Conv2d(256, 256, kernel_size=(3, 3), stride=(1, 1), padding=(1, 1))
        (average_pooling): AvgPool2d(kernel_size=2, stride=2, padding=0)
      )
    )
    (3): ModuleList(
      (0): DiscBlock(
        (activation): ReLU(inplace=True)
        (conv2d0): Conv2d(256, 512, kernel_size=(1, 1), stride=(1, 1))
        (conv2d1): Conv2d(256, 512, kernel_size=(3, 3), stride=(1, 1), padding=(1, 1))
        (conv2d2): Conv2d(512, 512, kernel_size=(3, 3), stride=(1, 1), padding=(1, 1))
        (average_pooling): AvgPool2d(kernel_size=2, stride=2, padding=0)
      )
    )
    (4): ModuleList(
      (0): DiscBlock(
        (activation): ReLU(inplace=True)
        (conv2d0): Conv2d(512, 1024, kernel_size=(1, 1), stride=(1, 1))
        (conv2d1): Conv2d(512, 1024, kernel_size=(3, 3), stride=(1, 1), padding=(1, 1))
        (conv2d2): Conv2d(1024, 1024, kernel_size=(3, 3), stride=(1, 1), padding=(1, 1))
        (average_pooling): AvgPool2d(kernel_size=2, stride=2, padding=0)
      )
    )
    (5): ModuleList(
      (0): DiscBlock(
        (activation): ReLU(inplace=True)
        (conv2d1): Conv2d(1024, 1024, kernel_size=(3, 3), stride=(1, 1), padding=(1, 1))
        (conv2d2): Conv2d(1024, 1024, kernel_size=(3, 3), stride=(1, 1), padding=(1, 1))
        (average_pooling): AvgPool2d(kernel_size=2, stride=2, padding=0)
      )
    )
  )
  (activation): ReLU(inplace=True)
  (linear1): Linear(in_features=1024, out_features=1, bias=True)
  (embedding): Embedding(1000, 1024)
)
[INFO] 2021-02-05 01:19:13 > Start training....
[INFO] 2021-02-05 01:20:43 > Step:     100 Progress: 0.1% Elapsed: 0:01:29 temperature: no ada_p: No Discriminator_loss: 0.59285 Generator_loss: 0.35164 
[INFO] 2021-02-05 01:21:48 > Step:     200 Progress: 0.1% Elapsed: 0:02:34 temperature: no ada_p: No Discriminator_loss: 1.29973 Generator_loss: 1.07069 
[INFO] 2021-02-05 01:22:52 > Step:     300 Progress: 0.1% Elapsed: 0:03:38 temperature: no ada_p: No Discriminator_loss: 1.23039 Generator_loss: 0.0990245 
…
