…
/A', 'latent_norm_reg_weight': 'N/A', 'ema': True, 'ema_decay': 0.9999, 'ema_start': 1000}}}
[INFO] 2021-01-31 12:59:51 > Load train datasets...
[INFO] 2021-01-31 12:59:51 > Train dataset size : 50000
[INFO] 2021-01-31 12:59:51 > Load test datasets...
[INFO] 2021-01-31 12:59:52 > Eval dataset size : 10000
[INFO] 2021-01-31 12:59:52 > Build model...
[INFO] 2021-01-31 12:59:52 > Modules are located on models.big_resnet.
[INFO] 2021-01-31 12:59:56 > Prepare EMA for G with decay of 0.9999.
[INFO] 2021-01-31 12:59:56 > Number of parameters: 9416196
[INFO] 2021-01-31 12:59:56 > Generator(
  (linear0): Linear(in_features=20, out_features=6144, bias=True)
  (shared): Embedding(10, 128)
  (blocks): ModuleList(
    (0): ModuleList(
      (0): GenBlock(
        (bn1): ConditionalBatchNorm2d_for_skip_and_shared(
          (bn): BatchNorm2d(384, eps=0.0001, momentum=0.1, affine=False, track_running_stats=True)
          (gain): Linear(in_features=148, out_features=384, bias=False)
          (bias): Linear(in_features=148, out_features=384, bias=False)
        )
        (bn2): ConditionalBatchNorm2d_for_skip_and_shared(
          (bn): BatchNorm2d(384, eps=0.0001, momentum=0.1, affine=False, track_running_stats=True)
          (gain): Linear(in_features=148, out_features=384, bias=False)
          (bias): Linear(in_features=148, out_features=384, bias=False)
        )
        (activation): ReLU(inplace=True)
        (conv2d0): Conv2d(384, 384, kernel_size=(1, 1), stride=(1, 1))
        (conv2d1): Conv2d(384, 384, kernel_size=(3, 3), stride=(1, 1), padding=(1, 1))
        (conv2d2): Conv2d(384, 384, kernel_size=(3, 3), stride=(1, 1), padding=(1, 1))
      )
    )
    (1): ModuleList(
      (0): GenBlock(
        (bn1): ConditionalBatchNorm2d_for_skip_and_shared(
          (bn): BatchNorm2d(384, eps=0.0001, momentum=0.1, affine=False, track_running_stats=True)
          (gain): Linear(in_features=148, out_features=384, bias=False)
          (bias): Linear(in_features=148, out_features=384, bias=False)
        )
        (bn2): ConditionalBatchNorm2d_for_skip_and_shared(
          (bn): BatchNorm2d(384, eps=0.0001, momentum=0.1, affine=False, track_running_stats=True)
          (gain): Linear(in_features=148, out_features=384, bias=False)
          (bias): Linear(in_features=148, out_features=384, bias=False)
        )
        (activation): ReLU(inplace=True)
        (conv2d0): Conv2d(384, 384, kernel_size=(1, 1), stride=(1, 1))
        (conv2d1): Conv2d(384, 384, kernel_size=(3, 3), stride=(1, 1), padding=(1, 1))
        (conv2d2): Conv2d(384, 384, kernel_size=(3, 3), stride=(1, 1), padding=(1, 1))
      )
    )
    (2): ModuleList(
      (0): Self_Attn(
        (conv1x1_theta): Conv2d(384, 48, kernel_size=(1, 1), stride=(1, 1), bias=False)
        (conv1x1_phi): Conv2d(384, 48, kernel_size=(1, 1), stride=(1, 1), bias=False)
        (conv1x1_g): Conv2d(384, 192, kernel_size=(1, 1), stride=(1, 1), bias=False)
        (conv1x1_attn): Conv2d(192, 384, kernel_size=(1, 1), stride=(1, 1), bias=False)
        (maxpool): MaxPool2d(kernel_size=2, stride=2, padding=0, dilation=1, ceil_mode=False)
        (softmax): Softmax(dim=-1)
      )
    )
    (3): ModuleList(
      (0): GenBlock(
        (bn1): ConditionalBatchNorm2d_for_skip_and_shared(
          (bn): BatchNorm2d(384, eps=0.0001, momentum=0.1, affine=False, track_running_stats=True)
          (gain): Linear(in_features=148, out_features=384, bias=False)
          (bias): Linear(in_features=148, out_features=384, bias=False)
        )
        (bn2): ConditionalBatchNorm2d_for_skip_and_shared(
          (bn): BatchNorm2d(384, eps=0.0001, momentum=0.1, affine=False, track_running_stats=True)
          (gain): Linear(in_features=148, out_features=384, bias=False)
          (bias): Linear(in_features=148, out_features=384, bias=False)
        )
        (activation): ReLU(inplace=True)
        (conv2d0): Conv2d(384, 384, kernel_size=(1, 1), stride=(1, 1))
        (conv2d1): Conv2d(384, 384, kernel_size=(3, 3), stride=(1, 1), padding=(1, 1))
        (conv2d2): Conv2d(384, 384, kernel_size=(3, 3), stride=(1, 1), padding=(1, 1))
      )
    )
  )
  (bn4): BatchNorm2d(384, eps=0.0001, momentum=0.1, affine=True, track_running_stats=True)
  (activation): ReLU(inplace=True)
  (conv2d5): Conv2d(384, 3, kernel_size=(3, 3), stride=(1, 1), padding=(1, 1))
  (tanh): Tanh()
)
[INFO] 2021-01-31 12:59:56 > Number of parameters: 2415170
[INFO] 2021-01-31 12:59:56 > Discriminator(
  (blocks): ModuleList(
    (0): ModuleList(
      (0): DiscOptBlock(
        (conv2d0): Conv2d(3, 192, kernel_size=(1, 1), stride=(1, 1))
        (conv2d1): Conv2d(3, 192, kernel_size=(3, 3), stride=(1, 1), padding=(1, 1))
        (conv2d2): Conv2d(192, 192, kernel_size=(3, 3), stride=(1, 1), padding=(1, 1))
        (activation): ReLU(inplace=True)
        (average_pooling): AvgPool2d(kernel_size=2, stride=2, padding=0)
      )
    )
    (1): ModuleList(
      (0): Self_Attn(
        (conv1x1_theta): Conv2d(192, 24, kernel_size=(1, 1), stride=(1, 1), bias=False)
        (conv1x1_phi): Conv2d(192, 24, kernel_size=(1, 1), stride=(1, 1), bias=False)
        (conv1x1_g): Conv2d(192, 96, kernel_size=(1, 1), stride=(1, 1), bias=False)
        (conv1x1_attn): Conv2d(96, 192, kernel_size=(1, 1), stride=(1, 1), bias=False)
        (maxpool): MaxPool2d(kernel_size=2, stride=2, padding=0, dilation=1, ceil_mode=False)
        (softmax): Softmax(dim=-1)
      )
    )
    (2): ModuleList(
      (0): DiscBlock(
        (activation): ReLU(inplace=True)
        (conv2d0): Conv2d(192, 192, kernel_size=(1, 1), stride=(1, 1))
        (conv2d1): Conv2d(192, 192, kernel_size=(3, 3), stride=(1, 1), padding=(1, 1))
        (conv2d2): Conv2d(192, 192, kernel_size=(3, 3), stride=(1, 1), padding=(1, 1))
        (average_pooling): AvgPool2d(kernel_size=2, stride=2, padding=0)
      )
    )
    (3): ModuleList(
      (0): DiscBlock(
        (activation): ReLU(inplace=True)
        (conv2d1): Conv2d(192, 192, kernel_size=(3, 3), stride=(1, 1), padding=(1, 1))
        (conv2d2): Conv2d(192, 192, kernel_size=(3, 3), stride=(1, 1), padding=(1, 1))
        (average_pooling): AvgPool2d(kernel_size=2, stride=2, padding=0)
      )
    )
    (4): ModuleList(
      (0): DiscBlock(
        (activation): ReLU(inplace=True)
        (conv2d1): Conv2d(192, 192, kernel_size=(3, 3), stride=(1, 1), padding=(1, 1))
        (conv2d2): Conv2d(192, 192, kernel_size=(3, 3), stride=(1, 1), padding=(1, 1))
        (average_pooling): AvgPool2d(kernel_size=2, stride=2, padding=0)
      )
    )
  )
  (activation): ReLU(inplace=True)
  (linear1): Linear(in_features=192, out_features=1, bias=True)
  (embedding): Embedding(10, 192)
)
[INFO] 2021-01-31 13:00:00 > Start training....
[INFO] 2021-01-31 13:01:19 > Step:     100 Progress: 0.0% Elapsed: 0:01:19 temperature: no ada_p: 0.0003072 Discriminator_loss: 0.532448 Generator_loss: 2.19652 
[INFO] 2021-01-31 13:02:34 > Step:     200 Progress: 0.1% Elapsed: 0:02:34 temperature: no ada_p: 0.00059904 Discriminator_loss: 0.364888 Generator_loss: 1.25736 
[INFO] 2021-01-31 13:03:50 > Step:     300 Progress: 0.1% Elapsed: 0:03:49 temperature: no ada_p: 0.000841728 Discriminator_loss: 0.557362 Generator_loss: 0.983819 
…
