…
l': 'N/A', 'latent_op_alpha': 'N/A', 'latent_op_beta': 'N/A', 'latent_norm_reg_weight': 'N/A', 'ema': True, 'ema_decay': 0.9999, 'ema_start': 1000}}
[INFO] 2020-09-17 13:44:46 > Loading train datasets...
[INFO] 2020-09-17 13:44:47 > Train dataset size : 50000
[INFO] 2020-09-17 13:44:47 > Loading test datasets...
[INFO] 2020-09-17 13:44:50 > Eval dataset size : 10000
[INFO] 2020-09-17 13:44:50 > Building model...
[INFO] 2020-09-17 13:44:50 > Modules are located on models.big_resnet_deep
[INFO] 2020-09-17 13:44:54 > Number of parameters: 4599876
[INFO] 2020-09-17 13:44:54 > Generator(
  (linear0): Linear(in_features=208, out_features=6144, bias=True)
  (shared): Embedding(10, 128)
  (blocks): ModuleList(
    (0): ModuleList(
      (0): GenBlock(
        (bn1): ConditionalBatchNorm2d_for_skip_and_shared(
          (bn): BatchNorm2d(384, eps=0.0001, momentum=0.1, affine=False, track_running_stats=True)
          (gain): Linear(in_features=208, out_features=384, bias=False)
          (bias): Linear(in_features=208, out_features=384, bias=False)
        )
        (bn2): ConditionalBatchNorm2d_for_skip_and_shared(
          (bn): BatchNorm2d(96, eps=0.0001, momentum=0.1, affine=False, track_running_stats=True)
          (gain): Linear(in_features=208, out_features=96, bias=False)
          (bias): Linear(in_features=208, out_features=96, bias=False)
        )
        (bn3): ConditionalBatchNorm2d_for_skip_and_shared(
          (bn): BatchNorm2d(96, eps=0.0001, momentum=0.1, affine=False, track_running_stats=True)
          (gain): Linear(in_features=208, out_features=96, bias=False)
          (bias): Linear(in_features=208, out_features=96, bias=False)
        )
        (bn4): ConditionalBatchNorm2d_for_skip_and_shared(
          (bn): BatchNorm2d(96, eps=0.0001, momentum=0.1, affine=False, track_running_stats=True)
          (gain): Linear(in_features=208, out_features=96, bias=False)
          (bias): Linear(in_features=208, out_features=96, bias=False)
        )
        (activation): ReLU(inplace=True)
        (conv2d1): Conv2d(384, 96, kernel_size=(1, 1), stride=(1, 1))
        (conv2d2): Conv2d(96, 96, kernel_size=(3, 3), stride=(1, 1), padding=(1, 1))
        (conv2d3): Conv2d(96, 96, kernel_size=(3, 3), stride=(1, 1), padding=(1, 1))
        (conv2d4): Conv2d(96, 384, kernel_size=(1, 1), stride=(1, 1))
      )
    )
    (1): ModuleList(
      (0): GenBlock(
        (bn1): ConditionalBatchNorm2d_for_skip_and_shared(
          (bn): BatchNorm2d(384, eps=0.0001, momentum=0.1, affine=False, track_running_stats=True)
          (gain): Linear(in_features=208, out_features=384, bias=False)
          (bias): Linear(in_features=208, out_features=384, bias=False)
        )
        (bn2): ConditionalBatchNorm2d_for_skip_and_shared(
          (bn): BatchNorm2d(96, eps=0.0001, momentum=0.1, affine=False, track_running_stats=True)
          (gain): Linear(in_features=208, out_features=96, bias=False)
          (bias): Linear(in_features=208, out_features=96, bias=False)
        )
        (bn3): ConditionalBatchNorm2d_for_skip_and_shared(
          (bn): BatchNorm2d(96, eps=0.0001, momentum=0.1, affine=False, track_running_stats=True)
          (gain): Linear(in_features=208, out_features=96, bias=False)
          (bias): Linear(in_features=208, out_features=96, bias=False)
        )
        (bn4): ConditionalBatchNorm2d_for_skip_and_shared(
          (bn): BatchNorm2d(96, eps=0.0001, momentum=0.1, affine=False, track_running_stats=True)
          (gain): Linear(in_features=208, out_features=96, bias=False)
          (bias): Linear(in_features=208, out_features=96, bias=False)
        )
        (activation): ReLU(inplace=True)
        (conv2d1): Conv2d(384, 96, kernel_size=(1, 1), stride=(1, 1))
        (conv2d2): Conv2d(96, 96, kernel_size=(3, 3), stride=(1, 1), padding=(1, 1))
        (conv2d3): Conv2d(96, 96, kernel_size=(3, 3), stride=(1, 1), padding=(1, 1))
        (conv2d4): Conv2d(96, 384, kernel_size=(1, 1), stride=(1, 1))
      )
    )
    (2): ModuleList(
      (0): GenBlock(
        (bn1): ConditionalBatchNorm2d_for_skip_and_shared(
          (bn): BatchNorm2d(384, eps=0.0001, momentum=0.1, affine=False, track_running_stats=True)
          (gain): Linear(in_features=208, out_features=384, bias=False)
          (bias): Linear(in_features=208, out_features=384, bias=False)
        )
        (bn2): ConditionalBatchNorm2d_for_skip_and_shared(
          (bn): BatchNorm2d(96, eps=0.0001, momentum=0.1, affine=False, track_running_stats=True)
          (gain): Linear(in_features=208, out_features=96, bias=False)
          (bias): Linear(in_features=208, out_features=96, bias=False)
        )
        (bn3): ConditionalBatchNorm2d_for_skip_and_shared(
          (bn): BatchNorm2d(96, eps=0.0001, momentum=0.1, affine=False, track_running_stats=True)
          (gain): Linear(in_features=208, out_features=96, bias=False)
          (bias): Linear(in_features=208, out_features=96, bias=False)
        )
        (bn4): ConditionalBatchNorm2d_for_skip_and_shared(
          (bn): BatchNorm2d(96, eps=0.0001, momentum=0.1, affine=False, track_running_stats=True)
          (gain): Linear(in_features=208, out_features=96, bias=False)
          (bias): Linear(in_features=208, out_features=96, bias=False)
        )
        (activation): ReLU(inplace=True)
        (conv2d1): Conv2d(384, 96, kernel_size=(1, 1), stride=(1, 1))
        (conv2d2): Conv2d(96, 96, kernel_size=(3, 3), stride=(1, 1), padding=(1, 1))
        (conv2d3): Conv2d(96, 96, kernel_size=(3, 3), stride=(1, 1), padding=(1, 1))
        (conv2d4): Conv2d(96, 384, kernel_size=(1, 1), stride=(1, 1))
      )
    )
    (3): ModuleList(
      (0): GenBlock(
        (bn1): ConditionalBatchNorm2d_for_skip_and_shared(
          (bn): BatchNorm2d(384, eps=0.0001, momentum=0.1, affine=False, track_running_stats=True)
          (gain): Linear(in_features=208, out_features=384, bias=False)
          (bias): Linear(in_features=208, out_features=384, bias=False)
        )
        (bn2): ConditionalBatchNorm2d_for_skip_and_shared(
          (bn): BatchNorm2d(96, eps=0.0001, momentum=0.1, affine=False, track_running_stats=True)
          (gain): Linear(in_features=208, out_features=96, bias=False)
          (bias): Linear(in_features=208, out_features=96, bias=False)
        )
        (bn3): ConditionalBatchNorm2d_for_skip_and_shared(
          (bn): BatchNorm2d(96, eps=0.0001, momentum=0.1, affine=False, track_running_stats=True)
          (gain): Linear(in_features=208, out_features=96, bias=False)
          (bias): Linear(in_features=208, out_features=96, bias=False)
        )
        (bn4): ConditionalBatchNorm2d_for_skip_and_shared(
          (bn): BatchNorm2d(96, eps=0.0001, momentum=0.1, affine=False, track_running_stats=True)
          (gain): Linear(in_features=208, out_features=96, bias=False)
          (bias): Linear(in_features=208, out_features=96, bias=False)
        )
        (activation): ReLU(inplace=True)
        (conv2d1): Conv2d(384, 96, kernel_size=(1, 1), stride=(1, 1))
        (conv2d2): Conv2d(96, 96, kernel_size=(3, 3), stride=(1, 1), padding=(1, 1))
        (conv2d3): Conv2d(96, 96, kernel_size=(3, 3), stride=(1, 1), padding=(1, 1))
        (conv2d4): Conv2d(96, 384, kernel_size=(1, 1), stride=(1, 1))
      )
    )
    (4): ModuleList(
      (0): Self_Attn(
        (conv1x1_theta): Conv2d(384, 48, kernel_size=(1, 1), stride=(1, 1), bias=False)
        (conv1x1_phi): Conv2d(384, 48, kernel_size=(1, 1), stride=(1, 1), bias=False)
        (conv1x1_g): Conv2d(384, 192, kernel_size=(1, 1), stride=(1, 1), bias=False)
        (conv1x1_attn): Conv2d(192, 384, kernel_size=(1, 1), stride=(1, 1), bias=False)
        (maxpool): MaxPool2d(kernel_size=2, stride=2, padding=0, dilation=1, ceil_mode=False)
        (softmax): Softmax(dim=-1)
      )
    )
    (5): ModuleList(
      (0): GenBlock(
        (bn1): ConditionalBatchNorm2d_for_skip_and_shared(
          (bn): BatchNorm2d(384, eps=0.0001, momentum=0.1, affine=False, track_running_stats=True)
          (gain): Linear(in_features=208, out_features=384, bias=False)
          (bias): Linear(in_features=208, out_features=384, bias=False)
        )
        (bn2): ConditionalBatchNorm2d_for_skip_and_shared(
          (bn): BatchNorm2d(96, eps=0.0001, momentum=0.1, affine=False, track_running_stats=True)
          (gain): Linear(in_features=208, out_features=96, bias=False)
          (bias): Linear(in_features=208, out_features=96, bias=False)
        )
        (bn3): ConditionalBatchNorm2d_for_skip_and_shared(
          (bn): BatchNorm2d(96, eps=0.0001, momentum=0.1, affine=False, track_running_stats=True)
          (gain): Linear(in_features=208, out_features=96, bias=False)
          (bias): Linear(in_features=208, out_features=96, bias=False)
        )
        (bn4): ConditionalBatchNorm2d_for_skip_and_shared(
          (bn): BatchNorm2d(96, eps=0.0001, momentum=0.1, affine=False, track_running_stats=True)
          (gain): Linear(in_features=208, out_features=96, bias=False)
          (bias): Linear(in_features=208, out_features=96, bias=False)
        )
        (activation): ReLU(inplace=True)
        (conv2d1): Conv2d(384, 96, kernel_size=(1, 1), stride=(1, 1))
        (conv2d2): Conv2d(96, 96, kernel_size=(3, 3), stride=(1, 1), padding=(1, 1))
        (conv2d3): Conv2d(96, 96, kernel_size=(3, 3), stride=(1, 1), padding=(1, 1))
        (conv2d4): Conv2d(96, 384, kernel_size=(1, 1), stride=(1, 1))
      )
    )
    (6): ModuleList(
      (0): GenBlock(
        (bn1): ConditionalBatchNorm2d_for_skip_and_shared(
          (bn): BatchNorm2d(384, eps=0.0001, momentum=0.1, affine=False, track_running_stats=True)
          (gain): Linear(in_features=208, out_features=384, bias=False)
          (bias): Linear(in_features=208, out_features=384, bias=False)
        )
        (bn2): ConditionalBatchNorm2d_for_skip_and_shared(
          (bn): BatchNorm2d(96, eps=0.0001, momentum=0.1, affine=False, track_running_stats=True)
          (gain): Linear(in_features=208, out_features=96, bias=False)
          (bias): Linear(in_features=208, out_features=96, bias=False)
        )
        (bn3): ConditionalBatchNorm2d_for_skip_and_shared(
          (bn): BatchNorm2d(96, eps=0.0001, momentum=0.1, affine=False, track_running_stats=True)
          (gain): Linear(in_features=208, out_features=96, bias=False)
          (bias): Linear(in_features=208, out_features=96, bias=False)
        )
        (bn4): ConditionalBatchNorm2d_for_skip_and_shared(
          (bn): BatchNorm2d(96, eps=0.0001, momentum=0.1, affine=False, track_running_stats=True)
          (gain): Linear(in_features=208, out_features=96, bias=False)
          (bias): Linear(in_features=208, out_features=96, bias=False)
        )
        (activation): ReLU(inplace=True)
        (conv2d1): Conv2d(384, 96, kernel_size=(1, 1), stride=(1, 1))
        (conv2d2): Conv2d(96, 96, kernel_size=(3, 3), stride=(1, 1), padding=(1, 1))
        (conv2d3): Conv2d(96, 96, kernel_size=(3, 3), stride=(1, 1), padding=(1, 1))
        (conv2d4): Conv2d(96, 384, kernel_size=(1, 1), stride=(1, 1))
      )
    )
  )
  (bn4): BatchNorm2d(384, eps=0.0001, momentum=0.1, affine=True, track_running_stats=True)
  (activation): ReLU(inplace=True)
  (conv2d5): Conv2d(384, 3, kernel_size=(3, 3), stride=(1, 1), padding=(1, 1))
  (tanh): Tanh()
)
[INFO] 2020-09-17 13:44:54 > Number of parameters: 415010
[INFO] 2020-09-17 13:44:54 > Discriminator(
  (input_conv): Conv2d(3, 192, kernel_size=(3, 3), stride=(1, 1), padding=(1, 1))
  (blocks): ModuleList(
    (0): ModuleList(
      (0): Conv2d(3, 192, kernel_size=(3, 3), stride=(1, 1), padding=(1, 1))
    )
    (1): ModuleList(
      (0): DiscBlock(
        (activation): ReLU(inplace=True)
        (conv2d1): Conv2d(192, 48, kernel_size=(1, 1), stride=(1, 1))
        (conv2d2): Conv2d(48, 48, kernel_size=(3, 3), stride=(1, 1), padding=(1, 1))
        (conv2d3): Conv2d(48, 48, kernel_size=(3, 3), stride=(1, 1), padding=(1, 1))
        (conv2d4): Conv2d(48, 192, kernel_size=(1, 1), stride=(1, 1))
        (average_pooling): AvgPool2d(kernel_size=2, stride=2, padding=0)
      )
    )
    (2): ModuleList(
      (0): DiscBlock(
        (activation): ReLU(inplace=True)
        (conv2d1): Conv2d(192, 48, kernel_size=(1, 1), stride=(1, 1))
        (conv2d2): Conv2d(48, 48, kernel_size=(3, 3), stride=(1, 1), padding=(1, 1))
        (conv2d3): Conv2d(48, 48, kernel_size=(3, 3), stride=(1, 1), padding=(1, 1))
        (conv2d4): Conv2d(48, 192, kernel_size=(1, 1), stride=(1, 1))
      )
    )
    (3): ModuleList(
      (0): Self_Attn(
        (conv1x1_theta): Conv2d(192, 24, kernel_size=(1, 1), stride=(1, 1), bias=False)
        (conv1x1_phi): Conv2d(192, 24, kernel_size=(1, 1), stride=(1, 1), bias=False)
        (conv1x1_g): Conv2d(192, 96, kernel_size=(1, 1), stride=(1, 1), bias=False)
        (conv1x1_attn): Conv2d(96, 192, kernel_size=(1, 1), stride=(1, 1), bias=False)
        (maxpool): MaxPool2d(kernel_size=2, stride=2, padding=0, dilation=1, ceil_mode=False)
        (softmax): Softmax(dim=-1)
      )
    )
    (4): ModuleList(
      (0): DiscBlock(
        (activation): ReLU(inplace=True)
        (conv2d1): Conv2d(192, 48, kernel_size=(1, 1), stride=(1, 1))
        (conv2d2): Conv2d(48, 48, kernel_size=(3, 3), stride=(1, 1), padding=(1, 1))
        (conv2d3): Conv2d(48, 48, kernel_size=(3, 3), stride=(1, 1), padding=(1, 1))
        (conv2d4): Conv2d(48, 192, kernel_size=(1, 1), stride=(1, 1))
      )
    )
    (5): ModuleList(
      (0): DiscBlock(
        (activation): ReLU(inplace=True)
        (conv2d1): Conv2d(192, 48, kernel_size=(1, 1), stride=(1, 1))
        (conv2d2): Conv2d(48, 48, kernel_size=(3, 3), stride=(1, 1), padding=(1, 1))
        (conv2d3): Conv2d(48, 48, kernel_size=(3, 3), stride=(1, 1), padding=(1, 1))
        (conv2d4): Conv2d(48, 192, kernel_size=(1, 1), stride=(1, 1))
      )
    )
    (6): ModuleList(
      (0): DiscBlock(
        (activation): ReLU(inplace=True)
        (conv2d1): Conv2d(192, 48, kernel_size=(1, 1), stride=(1, 1))
        (conv2d2): Conv2d(48, 48, kernel_size=(3, 3), stride=(1, 1), padding=(1, 1))
        (conv2d3): Conv2d(48, 48, kernel_size=(3, 3), stride=(1, 1), padding=(1, 1))
        (conv2d4): Conv2d(48, 192, kernel_size=(1, 1), stride=(1, 1))
      )
    )
    (7): ModuleList(
      (0): DiscBlock(
        (activation): ReLU(inplace=True)
        (conv2d1): Conv2d(192, 48, kernel_size=(1, 1), stride=(1, 1))
        (conv2d2): Conv2d(48, 48, kernel_size=(3, 3), stride=(1, 1), padding=(1, 1))
        (conv2d3): Conv2d(48, 48, kernel_size=(3, 3), stride=(1, 1), padding=(1, 1))
        (conv2d4): Conv2d(48, 192, kernel_size=(1, 1), stride=(1, 1))
      )
    )
  )
  (activation): ReLU(inplace=True)
  (linear1): Linear(in_features=192, out_features=1, bias=True)
  (embedding): Embedding(10, 192)
)
[INFO] 2020-09-17 13:44:57 > Start training....
[INFO] 2020-09-17 13:46:09 > Step:     100 Progress: 0.1% Elapsed: 0:01:11 temperature: no ada_p: No Discriminator_loss: 0.523468 Generator_loss: 4.94157 
[INFO] 2020-09-17 13:47:29 > Step:     200 Progress: 0.2% Elapsed: 0:02:31 temperature: no ada_p: No Discriminator_loss: 0.706563 Generator_loss: 2.00673 
[INFO] 2020-09-17 13:48:47 > Step:     300 Progress: 0.3% Elapsed: 0:03:49 temperature: no ada_p: No Discriminator_loss: 0.774787 Generator_loss: 3.22308 
…
