…
_step4eval': 'N/A', 'latent_op_alpha': 'N/A', 'latent_op_beta': 'N/A', 'latent_norm_reg_weight': 'N/A', 'ema': False, 'ema_decay': 'N/A', 'ema_start': 'N/A'}}
[INFO] 2020-09-15 23:11:09 > Loading train datasets...
[INFO] 2020-09-15 23:11:09 > Train dataset size : 50000
[INFO] 2020-09-15 23:11:09 > Loading test datasets...
[INFO] 2020-09-15 23:11:10 > Eval dataset size : 10000
[INFO] 2020-09-15 23:11:10 > Building model...
[INFO] 2020-09-15 23:11:10 > Modules are located on models.dcgan
[INFO] 2020-09-15 23:11:14 > Number of parameters: 3812355
[INFO] 2020-09-15 23:11:14 > Generator(
  (linear0): Linear(in_features=128, out_features=8192, bias=True)
  (blocks): ModuleList(
    (0): ModuleList(
      (0): GenBlock(
        (deconv0): ConvTranspose2d(512, 256, kernel_size=(4, 4), stride=(2, 2), padding=(1, 1))
        (bn0): BatchNorm2d(256, eps=0.0001, momentum=0.1, affine=True, track_running_stats=True)
        (activation): ReLU(inplace=True)
      )
    )
    (1): ModuleList(
      (0): GenBlock(
        (deconv0): ConvTranspose2d(256, 128, kernel_size=(4, 4), stride=(2, 2), padding=(1, 1))
        (bn0): BatchNorm2d(128, eps=0.0001, momentum=0.1, affine=True, track_running_stats=True)
        (activation): ReLU(inplace=True)
      )
    )
    (2): ModuleList(
      (0): GenBlock(
        (deconv0): ConvTranspose2d(128, 64, kernel_size=(4, 4), stride=(2, 2), padding=(1, 1))
        (bn0): BatchNorm2d(64, eps=0.0001, momentum=0.1, affine=True, track_running_stats=True)
        (activation): ReLU(inplace=True)
      )
    )
  )
  (conv4): Conv2d(64, 3, kernel_size=(3, 3), stride=(1, 1), padding=(1, 1))
  (tanh): Tanh()
)
[INFO] 2020-09-15 23:11:14 > Number of parameters: 2931009
[INFO] 2020-09-15 23:11:14 > Discriminator(
  (blocks): ModuleList(
    (0): ModuleList(
      (0): DiscBlock(
        (conv0): Conv2d(3, 64, kernel_size=(3, 3), stride=(1, 1), padding=(1, 1))
        (conv1): Conv2d(64, 64, kernel_size=(4, 4), stride=(2, 2), padding=(1, 1))
        (bn0): BatchNorm2d(64, eps=0.0001, momentum=0.1, affine=True, track_running_stats=True)
        (bn1): BatchNorm2d(64, eps=0.0001, momentum=0.1, affine=True, track_running_stats=True)
        (activation): ReLU(inplace=True)
      )
    )
    (1): ModuleList(
      (0): DiscBlock(
        (conv0): Conv2d(64, 128, kernel_size=(3, 3), stride=(1, 1), padding=(1, 1))
        (conv1): Conv2d(128, 128, kernel_size=(4, 4), stride=(2, 2), padding=(1, 1))
        (bn0): BatchNorm2d(128, eps=0.0001, momentum=0.1, affine=True, track_running_stats=True)
        (bn1): BatchNorm2d(128, eps=0.0001, momentum=0.1, affine=True, track_running_stats=True)
        (activation): ReLU(inplace=True)
      )
    )
    (2): ModuleList(
      (0): DiscBlock(
        (conv0): Conv2d(128, 256, kernel_size=(3, 3), stride=(1, 1), padding=(1, 1))
        (conv1): Conv2d(256, 256, kernel_size=(4, 4), stride=(2, 2), padding=(1, 1))
        (bn0): BatchNorm2d(256, eps=0.0001, momentum=0.1, affine=True, track_running_stats=True)
        (bn1): BatchNorm2d(256, eps=0.0001, momentum=0.1, affine=True, track_running_stats=True)
        (activation): ReLU(inplace=True)
      )
    )
  )
  (conv): Conv2d(256, 512, kernel_size=(3, 3), stride=(1, 1), padding=(1, 1))
  (bn): BatchNorm2d(512, eps=0.0001, momentum=0.1, affine=True, track_running_stats=True)
  (activation): ReLU(inplace=True)
  (linear1): Linear(in_features=512, out_features=1, bias=True)
)
[INFO] 2020-09-15 23:11:52 > Calculate moments of test dataset
[INFO] 2020-09-15 23:12:08 > Saving calculated means and covariances to disk...
[INFO] 2020-09-15 23:12:08 > calculate inception score of test dataset
[INFO] 2020-09-15 23:12:19 > Inception score=11.241484642028809-Inception_std=0.267821341753006
[INFO] 2020-09-15 23:12:19 > Start training....
…
