…
 'latent_norm_reg_weight': 'N/A', 'ema': True, 'ema_decay': 0.9999, 'ema_start': 20000}}}
[INFO] 2021-01-03 12:11:56 > Load train datasets...
[INFO] 2021-01-03 12:12:06 > Train dataset size : 100000
[INFO] 2021-01-03 12:12:06 > Load valid datasets...
[INFO] 2021-01-03 12:12:08 > Eval dataset size : 10000
[INFO] 2021-01-03 12:12:08 > Build model...
[INFO] 2021-01-03 12:12:08 > Modules are located on models.big_resnet.
[INFO] 2021-01-03 12:12:15 > Prepare EMA for G with decay of 0.9999.
[INFO] 2021-01-03 12:12:15 > Number of parameters: 17335204
[INFO] 2021-01-03 12:12:15 > Generator(
  (linear0): Linear(in_features=20, out_features=20480, bias=True)
  (shared): Embedding(200, 128)
  (blocks): ModuleList(
    (0): ModuleList(
      (0): GenBlock(
        (bn1): ConditionalBatchNorm2d_for_skip_and_shared(
          (bn): BatchNorm2d(1280, eps=0.0001, momentum=0.1, affine=False, track_running_stats=True)
          (gain): Linear(in_features=148, out_features=1280, bias=False)
          (bias): Linear(in_features=148, out_features=1280, bias=False)
        )
        (bn2): ConditionalBatchNorm2d_for_skip_and_shared(
          (bn): BatchNorm2d(640, eps=0.0001, momentum=0.1, affine=False, track_running_stats=True)
          (gain): Linear(in_features=148, out_features=640, bias=False)
          (bias): Linear(in_features=148, out_features=640, bias=False)
        )
        (activation): ReLU(inplace=True)
        (conv2d0): Conv2d(1280, 640, kernel_size=(1, 1), stride=(1, 1))
        (conv2d1): Conv2d(1280, 640, kernel_size=(3, 3), stride=(1, 1), padding=(1, 1))
        (conv2d2): Conv2d(640, 640, kernel_size=(3, 3), stride=(1, 1), padding=(1, 1))
      )
    )
    (1): ModuleList(
      (0): GenBlock(
        (bn1): ConditionalBatchNorm2d_for_skip_and_shared(
          (bn): BatchNorm2d(640, eps=0.0001, momentum=0.1, affine=False, track_running_stats=True)
          (gain): Linear(in_features=148, out_features=640, bias=False)
          (bias): Linear(in_features=148, out_features=640, bias=False)
        )
        (bn2): ConditionalBatchNorm2d_for_skip_and_shared(
          (bn): BatchNorm2d(320, eps=0.0001, momentum=0.1, affine=False, track_running_stats=True)
          (gain): Linear(in_features=148, out_features=320, bias=False)
          (bias): Linear(in_features=148, out_features=320, bias=False)
        )
        (activation): ReLU(inplace=True)
        (conv2d0): Conv2d(640, 320, kernel_size=(1, 1), stride=(1, 1))
        (conv2d1): Conv2d(640, 320, kernel_size=(3, 3), stride=(1, 1), padding=(1, 1))
        (conv2d2): Conv2d(320, 320, kernel_size=(3, 3), stride=(1, 1), padding=(1, 1))
      )
    )
    (2): ModuleList(
      (0): GenBlock(
        (bn1): ConditionalBatchNorm2d_for_skip_and_shared(
          (bn): BatchNorm2d(320, eps=0.0001, momentum=0.1, affine=False, track_running_stats=True)
          (gain): Linear(in_features=148, out_features=320, bias=False)
          (bias): Linear(in_features=148, out_features=320, bias=False)
        )
        (bn2): ConditionalBatchNorm2d_for_skip_and_shared(
          (bn): BatchNorm2d(160, eps=0.0001, momentum=0.1, affine=False, track_running_stats=True)
          (gain): Linear(in_features=148, out_features=160, bias=False)
          (bias): Linear(in_features=148, out_features=160, bias=False)
        )
        (activation): ReLU(inplace=True)
        (conv2d0): Conv2d(320, 160, kernel_size=(1, 1), stride=(1, 1))
        (conv2d1): Conv2d(320, 160, kernel_size=(3, 3), stride=(1, 1), padding=(1, 1))
        (conv2d2): Conv2d(160, 160, kernel_size=(3, 3), stride=(1, 1), padding=(1, 1))
      )
    )
    (3): ModuleList(
      (0): Self_Attn(
        (conv1x1_theta): Conv2d(160, 20, kernel_size=(1, 1), stride=(1, 1), bias=False)
        (conv1x1_phi): Conv2d(160, 20, kernel_size=(1, 1), stride=(1, 1), bias=False)
        (conv1x1_g): Conv2d(160, 80, kernel_size=(1, 1), stride=(1, 1), bias=False)
        (conv1x1_attn): Conv2d(80, 160, kernel_size=(1, 1), stride=(1, 1), bias=False)
        (maxpool): MaxPool2d(kernel_size=2, stride=2, padding=0, dilation=1, ceil_mode=False)
        (softmax): Softmax(dim=-1)
      )
    )
    (4): ModuleList(
      (0): GenBlock(
        (bn1): ConditionalBatchNorm2d_for_skip_and_shared(
          (bn): BatchNorm2d(160, eps=0.0001, momentum=0.1, affine=False, track_running_stats=True)
          (gain): Linear(in_features=148, out_features=160, bias=False)
          (bias): Linear(in_features=148, out_features=160, bias=False)
        )
        (bn2): ConditionalBatchNorm2d_for_skip_and_shared(
          (bn): BatchNorm2d(80, eps=0.0001, momentum=0.1, affine=False, track_running_stats=True)
          (gain): Linear(in_features=148, out_features=80, bias=False)
          (bias): Linear(in_features=148, out_features=80, bias=False)
        )
        (activation): ReLU(inplace=True)
        (conv2d0): Conv2d(160, 80, kernel_size=(1, 1), stride=(1, 1))
        (conv2d1): Conv2d(160, 80, kernel_size=(3, 3), stride=(1, 1), padding=(1, 1))
        (conv2d2): Conv2d(80, 80, kernel_size=(3, 3), stride=(1, 1), padding=(1, 1))
      )
    )
  )
  (bn4): BatchNorm2d(80, eps=0.0001, momentum=0.1, affine=True, track_running_stats=True)
  (activation): ReLU(inplace=True)
  (conv2d5): Conv2d(80, 3, kernel_size=(3, 3), stride=(1, 1), padding=(1, 1))
  (tanh): Tanh()
)
[INFO] 2021-01-03 12:12:15 > Number of parameters: 31678130
[INFO] 2021-01-03 12:12:15 > Discriminator(
  (blocks): ModuleList(
    (0): ModuleList(
      (0): DiscOptBlock(
        (conv2d0): Conv2d(3, 80, kernel_size=(1, 1), stride=(1, 1))
        (conv2d1): Conv2d(3, 80, kernel_size=(3, 3), stride=(1, 1), padding=(1, 1))
        (conv2d2): Conv2d(80, 80, kernel_size=(3, 3), stride=(1, 1), padding=(1, 1))
        (activation): ReLU(inplace=True)
        (average_pooling): AvgPool2d(kernel_size=2, stride=2, padding=0)
      )
    )
    (1): ModuleList(
      (0): Self_Attn(
        (conv1x1_theta): Conv2d(80, 10, kernel_size=(1, 1), stride=(1, 1), bias=False)
        (conv1x1_phi): Conv2d(80, 10, kernel_size=(1, 1), stride=(1, 1), bias=False)
        (conv1x1_g): Conv2d(80, 40, kernel_size=(1, 1), stride=(1, 1), bias=False)
        (conv1x1_attn): Conv2d(40, 80, kernel_size=(1, 1), stride=(1, 1), bias=False)
        (maxpool): MaxPool2d(kernel_size=2, stride=2, padding=0, dilation=1, ceil_mode=False)
        (softmax): Softmax(dim=-1)
      )
    )
    (2): ModuleList(
      (0): DiscBlock(
        (activation): ReLU(inplace=True)
        (conv2d0): Conv2d(80, 160, kernel_size=(1, 1), stride=(1, 1))
        (conv2d1): Conv2d(80, 160, kernel_size=(3, 3), stride=(1, 1), padding=(1, 1))
        (conv2d2): Conv2d(160, 160, kernel_size=(3, 3), stride=(1, 1), padding=(1, 1))
        (average_pooling): AvgPool2d(kernel_size=2, stride=2, padding=0)
      )
    )
    (3): ModuleList(
      (0): DiscBlock(
        (activation): ReLU(inplace=True)
        (conv2d0): Conv2d(160, 320, kernel_size=(1, 1), stride=(1, 1))
        (conv2d1): Conv2d(160, 320, kernel_size=(3, 3), stride=(1, 1), padding=(1, 1))
        (conv2d2): Conv2d(320, 320, kernel_size=(3, 3), stride=(1, 1), padding=(1, 1))
        (average_pooling): AvgPool2d(kernel_size=2, stride=2, padding=0)
      )
    )
    (4): ModuleList(
      (0): DiscBlock(
        (activation): ReLU(inplace=True)
        (conv2d0): Conv2d(320, 640, kernel_size=(1, 1), stride=(1, 1))
        (conv2d1): Conv2d(320, 640, kernel_size=(3, 3), stride=(1, 1), padding=(1, 1))
        (conv2d2): Conv2d(640, 640, kernel_size=(3, 3), stride=(1, 1), padding=(1, 1))
        (average_pooling): AvgPool2d(kernel_size=2, stride=2, padding=0)
      )
    )
    (5): ModuleList(
      (0): DiscBlock(
        (activation): ReLU(inplace=True)
        (conv2d0): Conv2d(640, 1280, kernel_size=(1, 1), stride=(1, 1))
        (conv2d1): Conv2d(640, 1280, kernel_size=(3, 3), stride=(1, 1), padding=(1, 1))
        (conv2d2): Conv2d(1280, 1280, kernel_size=(3, 3), stride=(1, 1), padding=(1, 1))
        (average_pooling): AvgPool2d(kernel_size=2, stride=2, padding=0)
      )
    )
  )
  (activation): ReLU(inplace=True)
  (linear1): Linear(in_features=1280, out_features=1, bias=True)
  (linear2): Linear(in_features=1280, out_features=768, bias=True)
  (embedding): Embedding(200, 768)
)
[INFO] 2021-01-03 12:12:20 > Start training....
[INFO] 2021-01-03 12:15:25 > Step:     100 Progress: 0.1% Elapsed: 0:03:05 temperature: 1.0 ada_p: No Discriminator_loss: 7.00629 Generator_loss: 5.54615 
[INFO] 2021-01-03 12:18:15 > Step:     200 Progress: 0.2% Elapsed: 0:05:54 temperature: 1.0 ada_p: No Discriminator_loss: 7.04496 Generator_loss: 4.98355 
[INFO] 2021-01-03 12:21:04 > Step:     300 Progress: 0.3% Elapsed: 0:08:44 temperature: 1.0 ada_p: No Discriminator_loss: 7.31886 Generator_loss: 4.65314 
…
