…
eg_weight': 'N/A', 'latent_op_lambda': 'N/A', 'ema': True, 'ema_decay': 0.9999, 'ema_start': 20000, 'synchronized_bn': False}}
[INFO] 2020-10-10 21:49:14 > Loading train datasets...
[INFO] 2020-10-10 21:49:16 > Train dataset size : 100000
[INFO] 2020-10-10 21:49:16 > Loading valid datasets...
[INFO] 2020-10-10 21:49:17 > Eval dataset size : 10000
[INFO] 2020-10-10 21:49:17 > Building model...
[INFO] 2020-10-10 21:49:17 > Modules are located on models.biggan
[INFO] 2020-10-10 21:49:24 > Number of parameters: 17335204
[INFO] 2020-10-10 21:49:24 > DataParallel(
  (module): Generator(
    (linear0): Linear(in_features=20, out_features=20480, bias=True)
    (shared): Embedding(200, 128)
    (blocks): ModuleList(
      (0): ModuleList(
        (0): GenBlock(
          (bn1): ConditionalBatchNorm2d_for_skip_and_shared(
            (bn): BatchNorm2d(1280, eps=0.0001, momentum=0.1, affine=False, track_running_stats=True)
            (gain): Linear(in_features=148, out_features=1280, bias=False)
            (bias): Linear(in_features=148, out_features=1280, bias=False)
          )
          (bn2): ConditionalBatchNorm2d_for_skip_and_shared(
            (bn): BatchNorm2d(640, eps=0.0001, momentum=0.1, affine=False, track_running_stats=True)
            (gain): Linear(in_features=148, out_features=640, bias=False)
            (bias): Linear(in_features=148, out_features=640, bias=False)
          )
          (activation): ReLU(inplace=True)
          (conv2d0): Conv2d(1280, 640, kernel_size=(1, 1), stride=(1, 1))
          (conv2d1): Conv2d(1280, 640, kernel_size=(3, 3), stride=(1, 1), padding=(1, 1))
          (conv2d2): Conv2d(640, 640, kernel_size=(3, 3), stride=(1, 1), padding=(1, 1))
        )
      )
      (1): ModuleList(
        (0): GenBlock(
          (bn1): ConditionalBatchNorm2d_for_skip_and_shared(
            (bn): BatchNorm2d(640, eps=0.0001, momentum=0.1, affine=False, track_running_stats=True)
            (gain): Linear(in_features=148, out_features=640, bias=False)
            (bias): Linear(in_features=148, out_features=640, bias=False)
          )
          (bn2): ConditionalBatchNorm2d_for_skip_and_shared(
            (bn): BatchNorm2d(320, eps=0.0001, momentum=0.1, affine=False, track_running_stats=True)
            (gain): Linear(in_features=148, out_features=320, bias=False)
            (bias): Linear(in_features=148, out_features=320, bias=False)
          )
          (activation): ReLU(inplace=True)
          (conv2d0): Conv2d(640, 320, kernel_size=(1, 1), stride=(1, 1))
          (conv2d1): Conv2d(640, 320, kernel_size=(3, 3), stride=(1, 1), padding=(1, 1))
          (conv2d2): Conv2d(320, 320, kernel_size=(3, 3), stride=(1, 1), padding=(1, 1))
        )
      )
      (2): ModuleList(
        (0): GenBlock(
          (bn1): ConditionalBatchNorm2d_for_skip_and_shared(
            (bn): BatchNorm2d(320, eps=0.0001, momentum=0.1, affine=False, track_running_stats=True)
            (gain): Linear(in_features=148, out_features=320, bias=False)
            (bias): Linear(in_features=148, out_features=320, bias=False)
          )
          (bn2): ConditionalBatchNorm2d_for_skip_and_shared(
            (bn): BatchNorm2d(160, eps=0.0001, momentum=0.1, affine=False, track_running_stats=True)
            (gain): Linear(in_features=148, out_features=160, bias=False)
            (bias): Linear(in_features=148, out_features=160, bias=False)
          )
          (activation): ReLU(inplace=True)
          (conv2d0): Conv2d(320, 160, kernel_size=(1, 1), stride=(1, 1))
          (conv2d1): Conv2d(320, 160, kernel_size=(3, 3), stride=(1, 1), padding=(1, 1))
          (conv2d2): Conv2d(160, 160, kernel_size=(3, 3), stride=(1, 1), padding=(1, 1))
        )
      )
      (3): ModuleList(
        (0): Self_Attn(
          (conv1x1_theta): Conv2d(160, 20, kernel_size=(1, 1), stride=(1, 1), bias=False)
          (conv1x1_phi): Conv2d(160, 20, kernel_size=(1, 1), stride=(1, 1), bias=False)
          (conv1x1_g): Conv2d(160, 80, kernel_size=(1, 1), stride=(1, 1), bias=False)
          (conv1x1_attn): Conv2d(80, 160, kernel_size=(1, 1), stride=(1, 1), bias=False)
          (maxpool): MaxPool2d(kernel_size=2, stride=2, padding=0, dilation=1, ceil_mode=False)
          (softmax): Softmax(dim=-1)
        )
      )
      (4): ModuleList(
        (0): GenBlock(
          (bn1): ConditionalBatchNorm2d_for_skip_and_shared(
            (bn): BatchNorm2d(160, eps=0.0001, momentum=0.1, affine=False, track_running_stats=True)
            (gain): Linear(in_features=148, out_features=160, bias=False)
            (bias): Linear(in_features=148, out_features=160, bias=False)
          )
          (bn2): ConditionalBatchNorm2d_for_skip_and_shared(
            (bn): BatchNorm2d(80, eps=0.0001, momentum=0.1, affine=False, track_running_stats=True)
            (gain): Linear(in_features=148, out_features=80, bias=False)
            (bias): Linear(in_features=148, out_features=80, bias=False)
          )
          (activation): ReLU(inplace=True)
          (conv2d0): Conv2d(160, 80, kernel_size=(1, 1), stride=(1, 1))
          (conv2d1): Conv2d(160, 80, kernel_size=(3, 3), stride=(1, 1), padding=(1, 1))
          (conv2d2): Conv2d(80, 80, kernel_size=(3, 3), stride=(1, 1), padding=(1, 1))
        )
      )
    )
    (bn4): BatchNorm2d(80, eps=1e-05, momentum=0.1, affine=True, track_running_stats=True)
    (activation): ReLU(inplace=True)
    (conv2d5): Conv2d(80, 3, kernel_size=(3, 3), stride=(1, 1), padding=(1, 1))
    (tanh): Tanh()
  )
)
[INFO] 2020-10-10 21:49:24 > Number of parameters: 30796722
[INFO] 2020-10-10 21:49:24 > DataParallel(
  (module): Discriminator(
    (blocks): ModuleList(
      (0): ModuleList(
        (0): DiscOptBlock(
          (conv2d0): Conv2d(3, 80, kernel_size=(1, 1), stride=(1, 1))
          (conv2d1): Conv2d(3, 80, kernel_size=(3, 3), stride=(1, 1), padding=(1, 1))
          (conv2d2): Conv2d(80, 80, kernel_size=(3, 3), stride=(1, 1), padding=(1, 1))
          (activation): ReLU(inplace=True)
          (average_pooling): AvgPool2d(kernel_size=2, stride=2, padding=0)
        )
      )
      (1): ModuleList(
        (0): Self_Attn(
          (conv1x1_theta): Conv2d(80, 10, kernel_size=(1, 1), stride=(1, 1), bias=False)
          (conv1x1_phi): Conv2d(80, 10, kernel_size=(1, 1), stride=(1, 1), bias=False)
          (conv1x1_g): Conv2d(80, 40, kernel_size=(1, 1), stride=(1, 1), bias=False)
          (conv1x1_attn): Conv2d(40, 80, kernel_size=(1, 1), stride=(1, 1), bias=False)
          (maxpool): MaxPool2d(kernel_size=2, stride=2, padding=0, dilation=1, ceil_mode=False)
          (softmax): Softmax(dim=-1)
        )
      )
      (2): ModuleList(
        (0): DiscBlock(
          (activation): ReLU(inplace=True)
          (conv2d0): Conv2d(80, 160, kernel_size=(1, 1), stride=(1, 1))
          (conv2d1): Conv2d(80, 160, kernel_size=(3, 3), stride=(1, 1), padding=(1, 1))
          (conv2d2): Conv2d(160, 160, kernel_size=(3, 3), stride=(1, 1), padding=(1, 1))
          (average_pooling): AvgPool2d(kernel_size=2, stride=2, padding=0)
        )
      )
      (3): ModuleList(
        (0): DiscBlock(
          (activation): ReLU(inplace=True)
          (conv2d0): Conv2d(160, 320, kernel_size=(1, 1), stride=(1, 1))
          (conv2d1): Conv2d(160, 320, kernel_size=(3, 3), stride=(1, 1), padding=(1, 1))
          (conv2d2): Conv2d(320, 320, kernel_size=(3, 3), stride=(1, 1), padding=(1, 1))
          (average_pooling): AvgPool2d(kernel_size=2, stride=2, padding=0)
        )
      )
      (4): ModuleList(
        (0): DiscBlock(
          (activation): ReLU(inplace=True)
          (conv2d0): Conv2d(320, 640, kernel_size=(1, 1), stride=(1, 1))
          (conv2d1): Conv2d(320, 640, kernel_size=(3, 3), stride=(1, 1), padding=(1, 1))
          (conv2d2): Conv2d(640, 640, kernel_size=(3, 3), stride=(1, 1), padding=(1, 1))
          (average_pooling): AvgPool2d(kernel_size=2, stride=2, padding=0)
        )
      )
      (5): ModuleList(
        (0): DiscBlock(
          (activation): ReLU(inplace=True)
          (conv2d0): Conv2d(640, 1280, kernel_size=(1, 1), stride=(1, 1))
          (conv2d1): Conv2d(640, 1280, kernel_size=(3, 3), stride=(1, 1), padding=(1, 1))
          (conv2d2): Conv2d(1280, 1280, kernel_size=(3, 3), stride=(1, 1), padding=(1, 1))
          (average_pooling): AvgPool2d(kernel_size=2, stride=2, padding=0)
        )
      )
    )
    (activation): ReLU(inplace=True)
    (linear1): Linear(in_features=1280, out_features=1, bias=True)
    (embedding): Embedding(200, 1280)
  )
)
[INFO] 2020-10-10 21:49:27 > calculate inception score of valid dataset
[INFO] 2020-10-10 21:49:47 > Inception score=31.573684692382812-Inception_std=1.443145751953125
[INFO] 2020-10-10 21:49:47 > Start training...
[INFO] 2020-10-10 21:51:48 > Step:     100 Progress: 0.1% Elapsed: 0:02:01 temperature: No Discriminator_loss: 1.8945 Generator_loss: -0.244845 
[INFO] 2020-10-10 21:53:46 > Step:     200 Progress: 0.2% Elapsed: 0:03:59 temperature: No Discriminator_loss: 1.95109 Generator_loss: 0.125973 
…
