…
_op_step4eval': 'N/A', 'latent_op_alpha': 'N/A', 'latent_op_beta': 'N/A', 'latent_norm_reg_weight': 'N/A', 'ema': False, 'ema_decay': 'N/A', 'ema_start': 'N/A'}}}
[INFO] 2021-01-15 11:59:43 > Load train datasets...
[INFO] 2021-01-15 11:59:46 > Train dataset size : 100000
[INFO] 2021-01-15 11:59:46 > Load valid datasets...
[INFO] 2021-01-15 11:59:46 > Eval dataset size : 10000
[INFO] 2021-01-15 11:59:46 > Build model...
[INFO] 2021-01-15 11:59:46 > Modules are located on models.resnet.
[INFO] 2021-01-15 11:59:54 > Number of parameters: 13366915
[INFO] 2021-01-15 11:59:54 > Generator(
  (linear0): Linear(in_features=128, out_features=16384, bias=True)
  (blocks): ModuleList(
    (0): ModuleList(
      (0): GenBlock(
        (bn1): ConditionalBatchNorm2d(
          (bn): BatchNorm2d(1024, eps=0.0001, momentum=0.1, affine=False, track_running_stats=True)
          (embed0): Embedding(200, 1024)
          (embed1): Embedding(200, 1024)
        )
        (bn2): ConditionalBatchNorm2d(
          (bn): BatchNorm2d(512, eps=0.0001, momentum=0.1, affine=False, track_running_stats=True)
          (embed0): Embedding(200, 512)
          (embed1): Embedding(200, 512)
        )
        (activation): ReLU(inplace=True)
        (conv2d0): Conv2d(1024, 512, kernel_size=(1, 1), stride=(1, 1))
        (conv2d1): Conv2d(1024, 512, kernel_size=(3, 3), stride=(1, 1), padding=(1, 1))
        (conv2d2): Conv2d(512, 512, kernel_size=(3, 3), stride=(1, 1), padding=(1, 1))
      )
    )
    (1): ModuleList(
      (0): GenBlock(
        (bn1): ConditionalBatchNorm2d(
          (bn): BatchNorm2d(512, eps=0.0001, momentum=0.1, affine=False, track_running_stats=True)
          (embed0): Embedding(200, 512)
          (embed1): Embedding(200, 512)
        )
        (bn2): ConditionalBatchNorm2d(
          (bn): BatchNorm2d(256, eps=0.0001, momentum=0.1, affine=False, track_running_stats=True)
          (embed0): Embedding(200, 256)
          (embed1): Embedding(200, 256)
        )
        (activation): ReLU(inplace=True)
        (conv2d0): Conv2d(512, 256, kernel_size=(1, 1), stride=(1, 1))
        (conv2d1): Conv2d(512, 256, kernel_size=(3, 3), stride=(1, 1), padding=(1, 1))
        (conv2d2): Conv2d(256, 256, kernel_size=(3, 3), stride=(1, 1), padding=(1, 1))
      )
    )
    (2): ModuleList(
      (0): GenBlock(
        (bn1): ConditionalBatchNorm2d(
          (bn): BatchNorm2d(256, eps=0.0001, momentum=0.1, affine=False, track_running_stats=True)
          (embed0): Embedding(200, 256)
          (embed1): Embedding(200, 256)
        )
        (bn2): ConditionalBatchNorm2d(
          (bn): BatchNorm2d(128, eps=0.0001, momentum=0.1, affine=False, track_running_stats=True)
          (embed0): Embedding(200, 128)
          (embed1): Embedding(200, 128)
        )
        (activation): ReLU(inplace=True)
        (conv2d0): Conv2d(256, 128, kernel_size=(1, 1), stride=(1, 1))
        (conv2d1): Conv2d(256, 128, kernel_size=(3, 3), stride=(1, 1), padding=(1, 1))
        (conv2d2): Conv2d(128, 128, kernel_size=(3, 3), stride=(1, 1), padding=(1, 1))
      )
    )
    (3): ModuleList(
      (0): GenBlock(
        (bn1): ConditionalBatchNorm2d(
          (bn): BatchNorm2d(128, eps=0.0001, momentum=0.1, affine=False, track_running_stats=True)
          (embed0): Embedding(200, 128)
          (embed1): Embedding(200, 128)
        )
        (bn2): ConditionalBatchNorm2d(
          (bn): BatchNorm2d(64, eps=0.0001, momentum=0.1, affine=False, track_running_stats=True)
          (embed0): Embedding(200, 64)
          (embed1): Embedding(200, 64)
        )
        (activation): ReLU(inplace=True)
        (conv2d0): Conv2d(128, 64, kernel_size=(1, 1), stride=(1, 1))
        (conv2d1): Conv2d(128, 64, kernel_size=(3, 3), stride=(1, 1), padding=(1, 1))
        (conv2d2): Conv2d(64, 64, kernel_size=(3, 3), stride=(1, 1), padding=(1, 1))
      )
    )
  )
  (bn4): BatchNorm2d(64, eps=0.0001, momentum=0.1, affine=True, track_running_stats=True)
  (activation): ReLU(inplace=True)
  (conv2d5): Conv2d(64, 3, kernel_size=(3, 3), stride=(1, 1), padding=(1, 1))
  (tanh): Tanh()
)
[INFO] 2021-01-15 11:59:54 > Number of parameters: 19747521
[INFO] 2021-01-15 11:59:54 > Discriminator(
  (blocks): ModuleList(
    (0): ModuleList(
      (0): DiscOptBlock(
        (conv2d0): Conv2d(3, 64, kernel_size=(1, 1), stride=(1, 1))
        (conv2d1): Conv2d(3, 64, kernel_size=(3, 3), stride=(1, 1), padding=(1, 1))
        (conv2d2): Conv2d(64, 64, kernel_size=(3, 3), stride=(1, 1), padding=(1, 1))
        (activation): ReLU(inplace=True)
        (average_pooling): AvgPool2d(kernel_size=2, stride=2, padding=0)
      )
    )
    (1): ModuleList(
      (0): DiscBlock(
        (activation): ReLU(inplace=True)
        (conv2d0): Conv2d(64, 128, kernel_size=(1, 1), stride=(1, 1))
        (conv2d1): Conv2d(64, 128, kernel_size=(3, 3), stride=(1, 1), padding=(1, 1))
        (conv2d2): Conv2d(128, 128, kernel_size=(3, 3), stride=(1, 1), padding=(1, 1))
        (average_pooling): AvgPool2d(kernel_size=2, stride=2, padding=0)
      )
    )
    (2): ModuleList(
      (0): DiscBlock(
        (activation): ReLU(inplace=True)
        (conv2d0): Conv2d(128, 256, kernel_size=(1, 1), stride=(1, 1))
        (conv2d1): Conv2d(128, 256, kernel_size=(3, 3), stride=(1, 1), padding=(1, 1))
        (conv2d2): Conv2d(256, 256, kernel_size=(3, 3), stride=(1, 1), padding=(1, 1))
        (average_pooling): AvgPool2d(kernel_size=2, stride=2, padding=0)
      )
    )
    (3): ModuleList(
      (0): DiscBlock(
        (activation): ReLU(inplace=True)
        (conv2d0): Conv2d(256, 512, kernel_size=(1, 1), stride=(1, 1))
        (conv2d1): Conv2d(256, 512, kernel_size=(3, 3), stride=(1, 1), padding=(1, 1))
        (conv2d2): Conv2d(512, 512, kernel_size=(3, 3), stride=(1, 1), padding=(1, 1))
        (average_pooling): AvgPool2d(kernel_size=2, stride=2, padding=0)
      )
    )
    (4): ModuleList(
      (0): DiscBlock(
        (activation): ReLU(inplace=True)
        (conv2d0): Conv2d(512, 1024, kernel_size=(1, 1), stride=(1, 1))
        (conv2d1): Conv2d(512, 1024, kernel_size=(3, 3), stride=(1, 1), padding=(1, 1))
        (conv2d2): Conv2d(1024, 1024, kernel_size=(3, 3), stride=(1, 1), padding=(1, 1))
        (average_pooling): AvgPool2d(kernel_size=2, stride=2, padding=0)
      )
    )
  )
  (activation): ReLU(inplace=True)
  (linear1): Linear(in_features=1024, out_features=1, bias=True)
  (embedding): Embedding(200, 1024)
)
[INFO] 2021-01-15 12:00:01 > Start training....
[INFO] 2021-01-15 12:00:54 > Step:     100 Progress: 0.1% Elapsed: 0:00:52 temperature: no ada_p: No Discriminator_loss: 1.90574 Generator_loss: 0.328035 
[INFO] 2021-01-15 12:01:41 > Step:     200 Progress: 0.2% Elapsed: 0:01:39 temperature: no ada_p: No Discriminator_loss: 1.93741 Generator_loss: 0.246465 
[INFO] 2021-01-15 12:02:28 > Step:     300 Progress: 0.3% Elapsed: 0:02:26 temperature: no ada_p: No Discriminator_loss: 1.87119 Generator_loss: -0.575797 
…
